…
2020-11-21 16:01:06.753431: I tensorflow/core/common_runtime/gpu/gpu_device.cc:1115] Created TensorFlow device (/job:localhost/replica:0/task:0/device:GPU:0 with 4465 MB memory) -> physical GPU (device: 0, name: GeForce GTX 1080 Ti, pci bus id: 0000:41:00.0, compute capability: 6.1)
['SCYN1121', 'SCYN1121V3', '1', 1530403200.0, 1577836800.0]
__________________________________________________________________________________________________
Layer (type)                    Output Shape         Param #     Connected to                     
==================================================================================================
inputs (InputLayer)             (None, 2000, 1, 3)   0                                            
__________________________________________________________________________________________________
conv_0_0 (Conv2D)               (None, 2000, 1, 4)   52          inputs[0][0]                     
__________________________________________________________________________________________________
BN_0_0 (BatchNormalization)     (None, 2000, 1, 4)   16          conv_0_0[0][0]                   
__________________________________________________________________________________________________
AC_0_0 (Activation)             (None, 2000, 1, 4)   0           BN_0_0[0][0]                     
__________________________________________________________________________________________________
conv_0_1 (Conv2D)               (None, 2000, 1, 4)   68          AC_0_0[0][0]                     
__________________________________________________________________________________________________
BN_0_1 (BatchNormalization)     (None, 2000, 1, 4)   16          conv_0_1[0][0]                   
__________________________________________________________________________________________________
AC_0_1 (Activation)             (None, 2000, 1, 4)   0           BN_0_1[0][0]                     
__________________________________________________________________________________________________
PL_0_0 (MaxPooling2D)           (None, 1000, 1, 4)   0           AC_0_1[0][0]                     
__________________________________________________________________________________________________
conv_1_0 (Conv2D)               (None, 1000, 1, 8)   136         PL_0_0[0][0]                     
__________________________________________________________________________________________________
BN_1_0 (BatchNormalization)     (None, 1000, 1, 8)   32          conv_1_0[0][0]                   
__________________________________________________________________________________________________
AC_1_0 (Activation)             (None, 1000, 1, 8)   0           BN_1_0[0][0]                     
__________________________________________________________________________________________________
conv_1_1 (Conv2D)               (None, 1000, 1, 8)   264         AC_1_0[0][0]                     
__________________________________________________________________________________________________
BN_1_1 (BatchNormalization)     (None, 1000, 1, 8)   32          conv_1_1[0][0]                   
__________________________________________________________________________________________________
AC_1_1 (Activation)             (None, 1000, 1, 8)   0           BN_1_1[0][0]                     
__________________________________________________________________________________________________
PL_1_0 (AveragePooling2D)       (None, 500, 1, 8)    0           AC_1_1[0][0]                     
__________________________________________________________________________________________________
conv_2_0 (Conv2D)               (None, 500, 1, 16)   528         PL_1_0[0][0]                     
__________________________________________________________________________________________________
BN_2_0 (BatchNormalization)     (None, 500, 1, 16)   64          conv_2_0[0][0]                   
__________________________________________________________________________________________________
AC_2_0 (Activation)             (None, 500, 1, 16)   0           BN_2_0[0][0]                     
__________________________________________________________________________________________________
conv_2_1 (Conv2D)               (None, 500, 1, 16)   1040        AC_2_0[0][0]                     
__________________________________________________________________________________________________
BN_2_1 (BatchNormalization)     (None, 500, 1, 16)   64          conv_2_1[0][0]                   
__________________________________________________________________________________________________
AC_2_1 (Activation)             (None, 500, 1, 16)   0           BN_2_1[0][0]                     
__________________________________________________________________________________________________
PL_2_0 (MaxPooling2D)           (None, 250, 1, 16)   0           AC_2_1[0][0]                     
__________________________________________________________________________________________________
conv_3_0 (Conv2D)               (None, 250, 1, 32)   2080        PL_2_0[0][0]                     
__________________________________________________________________________________________________
BN_3_0 (BatchNormalization)     (None, 250, 1, 32)   128         conv_3_0[0][0]                   
__________________________________________________________________________________________________
AC_3_0 (Activation)             (None, 250, 1, 32)   0           BN_3_0[0][0]                     
__________________________________________________________________________________________________
conv_3_1 (Conv2D)               (None, 250, 1, 32)   4128        AC_3_0[0][0]                     
__________________________________________________________________________________________________
BN_3_1 (BatchNormalization)     (None, 250, 1, 32)   128         conv_3_1[0][0]                   
__________________________________________________________________________________________________
AC_3_1 (Activation)             (None, 250, 1, 32)   0           BN_3_1[0][0]                     
__________________________________________________________________________________________________
PL_3_0 (AveragePooling2D)       (None, 125, 1, 32)   0           AC_3_1[0][0]                     
__________________________________________________________________________________________________
CONV_4_0 (Conv2D)               (None, 125, 1, 64)   20544       PL_3_0[0][0]                     
__________________________________________________________________________________________________
BN_4_0 (BatchNormalization)     (None, 125, 1, 64)   256         CONV_4_0[0][0]                   
__________________________________________________________________________________________________
AC_4_0 (Activation)             (None, 125, 1, 64)   0           BN_4_0[0][0]                     
__________________________________________________________________________________________________
CONV_4_1 (Conv2D)               (None, 125, 1, 64)   41024       AC_4_0[0][0]                     
__________________________________________________________________________________________________
BN_4_1 (BatchNormalization)     (None, 125, 1, 64)   256         CONV_4_1[0][0]                   
__________________________________________________________________________________________________
AC_4_1 (Activation)             (None, 125, 1, 64)   0           BN_4_1[0][0]                     
__________________________________________________________________________________________________
PL_4_0 (MaxPooling2D)           (None, 25, 1, 64)    0           AC_4_1[0][0]                     
__________________________________________________________________________________________________
CONV_5_0 (Conv2D)               (None, 25, 1, 192)   123072      PL_4_0[0][0]                     
__________________________________________________________________________________________________
BN_5_0 (BatchNormalization)     (None, 25, 1, 192)   768         CONV_5_0[0][0]                   
__________________________________________________________________________________________________
AC_5_0 (Activation)             (None, 25, 1, 192)   0           BN_5_0[0][0]                     
__________________________________________________________________________________________________
CONV_5_1 (Conv2D)               (None, 25, 1, 192)   368832      AC_5_0[0][0]                     
__________________________________________________________________________________________________
BN_5_1 (BatchNormalization)     (None, 25, 1, 192)   768         CONV_5_1[0][0]                   
__________________________________________________________________________________________________
AC_5_1 (Activation)             (None, 25, 1, 192)   0           BN_5_1[0][0]                     
__________________________________________________________________________________________________
PL_5_0 (MaxPooling2D)           (None, 5, 1, 192)    0           AC_5_1[0][0]                     
__________________________________________________________________________________________________
CONV_6_0 (Conv2D)               (None, 5, 1, 576)    553536      PL_5_0[0][0]                     
__________________________________________________________________________________________________
BN_6_0 (BatchNormalization)     (None, 5, 1, 576)    2304        CONV_6_0[0][0]                   
__________________________________________________________________________________________________
AC_6_0 (Activation)             (None, 5, 1, 576)    0           BN_6_0[0][0]                     
__________________________________________________________________________________________________
CONV_6_1 (Conv2D)               (None, 5, 1, 576)    1659456     AC_6_0[0][0]                     
__________________________________________________________________________________________________
BN_6_1 (BatchNormalization)     (None, 5, 1, 576)    2304        CONV_6_1[0][0]                   
__________________________________________________________________________________________________
AC_6_1 (Activation)             (None, 5, 1, 576)    0           BN_6_1[0][0]                     
__________________________________________________________________________________________________
PL_6_0 (MaxPooling2D)           (None, 1, 1, 576)    0           AC_6_1[0][0]                     
__________________________________________________________________________________________________
DCONV_6_60 (Conv2DTranspose)    (None, 5, 1, 576)    1659456     PL_6_0[0][0]                     
__________________________________________________________________________________________________
BN__6_60 (BatchNormalization)   (None, 5, 1, 576)    2304        DCONV_6_60[0][0]                 
__________________________________________________________________________________________________
Ac__6_60 (Activation)           (None, 5, 1, 576)    0           BN__6_60[0][0]                   
__________________________________________________________________________________________________
conc__6_60 (Concatenate)        (None, 5, 1, 1152)   0           Ac__6_60[0][0]                   
                                                                 AC_6_0[0][0]                     
__________________________________________________________________________________________________
DCONV_6_50 (Conv2DTranspose)    (None, 25, 1, 192)   1106112     AC_6_0[0][0]                     
__________________________________________________________________________________________________
DCONV_6_61 (Conv2D)             (None, 5, 1, 576)    3318336     conc__6_60[0][0]                 
__________________________________________________________________________________________________
BN__6_50 (BatchNormalization)   (None, 25, 1, 192)   768         DCONV_6_50[0][0]                 
__________________________________________________________________________________________________
BN__6_61 (BatchNormalization)   (None, 5, 1, 576)    2304        DCONV_6_61[0][0]                 
__________________________________________________________________________________________________
Ac__6_50 (Activation)           (None, 25, 1, 192)   0           BN__6_50[0][0]                   
__________________________________________________________________________________________________
Ac__6_61 (Activation)           (None, 5, 1, 576)    0           BN__6_61[0][0]                   
__________________________________________________________________________________________________
conc__6_50 (Concatenate)        (None, 25, 1, 384)   0           Ac__6_50[0][0]                   
                                                                 AC_5_0[0][0]                     
__________________________________________________________________________________________________
DCONV_6_40 (Conv2DTranspose)    (None, 125, 1, 64)   122944      AC_5_0[0][0]                     
__________________________________________________________________________________________________
conc__6_61 (Concatenate)        (None, 5, 1, 1152)   0           Ac__6_61[0][0]                   
                                                                 AC_6_0[0][0]                     
__________________________________________________________________________________________________
DCONV_6_51 (Conv2D)             (None, 25, 1, 192)   737472      conc__6_50[0][0]                 
__________________________________________________________________________________________________
BN__6_40 (BatchNormalization)   (None, 125, 1, 64)   256         DCONV_6_40[0][0]                 
__________________________________________________________________________________________________
DCONV_5_50 (Conv2DTranspose)    (None, 25, 1, 192)   2212032     conc__6_61[0][0]                 
__________________________________________________________________________________________________
BN__6_51 (BatchNormalization)   (None, 25, 1, 192)   768         DCONV_6_51[0][0]                 
__________________________________________________________________________________________________
Ac__6_40 (Activation)           (None, 125, 1, 64)   0           BN__6_40[0][0]                   
__________________________________________________________________________________________________
BN__5_50 (BatchNormalization)   (None, 25, 1, 192)   768         DCONV_5_50[0][0]                 
__________________________________________________________________________________________________
Ac__6_51 (Activation)           (None, 25, 1, 192)   0           BN__6_51[0][0]                   
__________________________________________________________________________________________________
conc__6_40 (Concatenate)        (None, 125, 1, 128)  0           Ac__6_40[0][0]                   
                                                                 AC_4_0[0][0]                     
__________________________________________________________________________________________________
DCONV_6_30 (Conv2DTranspose)    (None, 250, 1, 32)   8224        AC_4_0[0][0]                     
__________________________________________________________________________________________________
Ac__5_50 (Activation)           (None, 25, 1, 192)   0           BN__5_50[0][0]                   
__________________________________________________________________________________________________
conc__6_51 (Concatenate)        (None, 25, 1, 384)   0           Ac__6_51[0][0]                   
                                                                 AC_5_0[0][0]                     
__________________________________________________________________________________________________
DCONV_6_41 (Conv2D)             (None, 125, 1, 64)   81984       conc__6_40[0][0]                 
__________________________________________________________________________________________________
BN__6_30 (BatchNormalization)   (None, 250, 1, 32)   128         DCONV_6_30[0][0]                 
__________________________________________________________________________________________________
conc__5_50 (Concatenate)        (None, 25, 1, 576)   0           Ac__5_50[0][0]                   
                                                                 conc__6_51[0][0]                 
__________________________________________________________________________________________________
DCONV_5_40 (Conv2DTranspose)    (None, 125, 1, 64)   245824      conc__6_51[0][0]                 
__________________________________________________________________________________________________
BN__6_41 (BatchNormalization)   (None, 125, 1, 64)   256         DCONV_6_41[0][0]                 
__________________________________________________________________________________________________
Ac__6_30 (Activation)           (None, 250, 1, 32)   0           BN__6_30[0][0]                   
__________________________________________________________________________________________________
DCONV_5_51 (Conv2D)             (None, 25, 1, 192)   1106112     conc__5_50[0][0]                 
__________________________________________________________________________________________________
BN__5_40 (BatchNormalization)   (None, 125, 1, 64)   256         DCONV_5_40[0][0]                 
__________________________________________________________________________________________________
Ac__6_41 (Activation)           (None, 125, 1, 64)   0           BN__6_41[0][0]                   
__________________________________________________________________________________________________
conc__6_30 (Concatenate)        (None, 250, 1, 64)   0           Ac__6_30[0][0]                   
                                                                 AC_3_0[0][0]                     
__________________________________________________________________________________________________
DCONV_6_20 (Conv2DTranspose)    (None, 500, 1, 16)   2064        AC_3_0[0][0]                     
__________________________________________________________________________________________________
BN__5_51 (BatchNormalization)   (None, 25, 1, 192)   768         DCONV_5_51[0][0]                 
__________________________________________________________________________________________________
Ac__5_40 (Activation)           (None, 125, 1, 64)   0           BN__5_40[0][0]                   
__________________________________________________________________________________________________
conc__6_41 (Concatenate)        (None, 125, 1, 128)  0           Ac__6_41[0][0]                   
                                                                 AC_4_0[0][0]                     
__________________________________________________________________________________________________
DCONV_6_31 (Conv2D)             (None, 250, 1, 32)   8224        conc__6_30[0][0]                 
__________________________________________________________________________________________________
BN__6_20 (BatchNormalization)   (None, 500, 1, 16)   64          DCONV_6_20[0][0]                 
__________________________________________________________________________________________________
Ac__5_51 (Activation)           (None, 25, 1, 192)   0           BN__5_51[0][0]                   
__________________________________________________________________________________________________
conc__5_40 (Concatenate)        (None, 125, 1, 192)  0           Ac__5_40[0][0]                   
                                                                 conc__6_41[0][0]                 
__________________________________________________________________________________________________
DCONV_5_30 (Conv2DTranspose)    (None, 250, 1, 32)   16416       conc__6_41[0][0]                 
__________________________________________________________________________________________________
BN__6_31 (BatchNormalization)   (None, 250, 1, 32)   128         DCONV_6_31[0][0]                 
__________________________________________________________________________________________________
Ac__6_20 (Activation)           (None, 500, 1, 16)   0           BN__6_20[0][0]                   
__________________________________________________________________________________________________
conc__5_51 (Concatenate)        (None, 25, 1, 576)   0           Ac__5_51[0][0]                   
                                                                 conc__6_51[0][0]                 
__________________________________________________________________________________________________
DCONV_5_41 (Conv2D)             (None, 125, 1, 64)   122944      conc__5_40[0][0]                 
__________________________________________________________________________________________________
BN__5_30 (BatchNormalization)   (None, 250, 1, 32)   128         DCONV_5_30[0][0]                 
__________________________________________________________________________________________________
Ac__6_31 (Activation)           (None, 250, 1, 32)   0           BN__6_31[0][0]                   
__________________________________________________________________________________________________
conc__6_20 (Concatenate)        (None, 500, 1, 32)   0           Ac__6_20[0][0]                   
                                                                 AC_2_0[0][0]                     
__________________________________________________________________________________________________
DCONV_6_10 (Conv2DTranspose)    (None, 1000, 1, 8)   520         AC_2_0[0][0]                     
__________________________________________________________________________________________________
DCONV_4_40 (Conv2DTranspose)    (None, 125, 1, 64)   368704      conc__5_51[0][0]                 
__________________________________________________________________________________________________
BN__5_41 (BatchNormalization)   (None, 125, 1, 64)   256         DCONV_5_41[0][0]                 
__________________________________________________________________________________________________
Ac__5_30 (Activation)           (None, 250, 1, 32)   0           BN__5_30[0][0]                   
__________________________________________________________________________________________________
conc__6_31 (Concatenate)        (None, 250, 1, 64)   0           Ac__6_31[0][0]                   
                                                                 AC_3_0[0][0]                     
__________________________________________________________________________________________________
DCONV_6_21 (Conv2D)             (None, 500, 1, 16)   2064        conc__6_20[0][0]                 
__________________________________________________________________________________________________
BN__6_10 (BatchNormalization)   (None, 1000, 1, 8)   32          DCONV_6_10[0][0]                 
__________________________________________________________________________________________________
BN__4_40 (BatchNormalization)   (None, 125, 1, 64)   256         DCONV_4_40[0][0]                 
__________________________________________________________________________________________________
Ac__5_41 (Activation)           (None, 125, 1, 64)   0           BN__5_41[0][0]                   
__________________________________________________________________________________________________
conc__5_30 (Concatenate)        (None, 250, 1, 96)   0           Ac__5_30[0][0]                   
                                                                 conc__6_31[0][0]                 
__________________________________________________________________________________________________
DCONV_5_20 (Conv2DTranspose)    (None, 500, 1, 16)   4112        conc__6_31[0][0]                 
__________________________________________________________________________________________________
BN__6_21 (BatchNormalization)   (None, 500, 1, 16)   64          DCONV_6_21[0][0]                 
__________________________________________________________________________________________________
Ac__6_10 (Activation)           (None, 1000, 1, 8)   0           BN__6_10[0][0]                   
__________________________________________________________________________________________________
Ac__4_40 (Activation)           (None, 125, 1, 64)   0           BN__4_40[0][0]                   
__________________________________________________________________________________________________
conc__5_41 (Concatenate)        (None, 125, 1, 192)  0           Ac__5_41[0][0]                   
                                                                 conc__6_41[0][0]                 
__________________________________________________________________________________________________
DCONV_5_31 (Conv2D)             (None, 250, 1, 32)   12320       conc__5_30[0][0]                 
__________________________________________________________________________________________________
BN__5_20 (BatchNormalization)   (None, 500, 1, 16)   64          DCONV_5_20[0][0]                 
__________________________________________________________________________________________________
Ac__6_21 (Activation)           (None, 500, 1, 16)   0           BN__6_21[0][0]                   
__________________________________________________________________________________________________
conc__6_10 (Concatenate)        (None, 1000, 1, 16)  0           Ac__6_10[0][0]                   
                                                                 AC_1_0[0][0]                     
__________________________________________________________________________________________________
DCONV_6_00 (Conv2DTranspose)    (None, 2000, 1, 4)   132         AC_1_0[0][0]                     
__________________________________________________________________________________________________
conc__4_40 (Concatenate)        (None, 125, 1, 256)  0           Ac__4_40[0][0]                   
                                                                 conc__5_41[0][0]                 
__________________________________________________________________________________________________
DCONV_4_30 (Conv2DTranspose)    (None, 250, 1, 32)   24608       conc__5_41[0][0]                 
__________________________________________________________________________________________________
BN__5_31 (BatchNormalization)   (None, 250, 1, 32)   128         DCONV_5_31[0][0]                 
__________________________________________________________________________________________________
Ac__5_20 (Activation)           (None, 500, 1, 16)   0           BN__5_20[0][0]                   
__________________________________________________________________________________________________
conc__6_21 (Concatenate)        (None, 500, 1, 32)   0           Ac__6_21[0][0]                   
                                                                 AC_2_0[0][0]                     
__________________________________________________________________________________________________
DCONV_6_11 (Conv2D)             (None, 1000, 1, 8)   520         conc__6_10[0][0]                 
__________________________________________________________________________________________________
BN__6_00 (BatchNormalization)   (None, 2000, 1, 4)   16          DCONV_6_00[0][0]                 
__________________________________________________________________________________________________
DCONV_4_41 (Conv2D)             (None, 125, 1, 64)   163904      conc__4_40[0][0]                 
__________________________________________________________________________________________________
BN__4_30 (BatchNormalization)   (None, 250, 1, 32)   128         DCONV_4_30[0][0]                 
__________________________________________________________________________________________________
Ac__5_31 (Activation)           (None, 250, 1, 32)   0           BN__5_31[0][0]                   
__________________________________________________________________________________________________
conc__5_20 (Concatenate)        (None, 500, 1, 48)   0           Ac__5_20[0][0]                   
                                                                 conc__6_21[0][0]                 
__________________________________________________________________________________________________
DCONV_5_10 (Conv2DTranspose)    (None, 1000, 1, 8)   1032        conc__6_21[0][0]                 
__________________________________________________________________________________________________
BN__6_11 (BatchNormalization)   (None, 1000, 1, 8)   32          DCONV_6_11[0][0]                 
__________________________________________________________________________________________________
Ac__6_00 (Activation)           (None, 2000, 1, 4)   0           BN__6_00[0][0]                   
__________________________________________________________________________________________________
BN__4_41 (BatchNormalization)   (None, 125, 1, 64)   256         DCONV_4_41[0][0]                 
__________________________________________________________________________________________________
Ac__4_30 (Activation)           (None, 250, 1, 32)   0           BN__4_30[0][0]                   
__________________________________________________________________________________________________
conc__5_31 (Concatenate)        (None, 250, 1, 96)   0           Ac__5_31[0][0]                   
                                                                 conc__6_31[0][0]                 
__________________________________________________________________________________________________
DCONV_5_21 (Conv2D)             (None, 500, 1, 16)   3088        conc__5_20[0][0]                 
__________________________________________________________________________________________________
BN__5_10 (BatchNormalization)   (None, 1000, 1, 8)   32          DCONV_5_10[0][0]                 
__________________________________________________________________________________________________
Ac__6_11 (Activation)           (None, 1000, 1, 8)   0           BN__6_11[0][0]                   
__________________________________________________________________________________________________
conc__6_00 (Concatenate)        (None, 2000, 1, 8)   0           Ac__6_00[0][0]                   
                                                                 AC_0_0[0][0]                     
__________________________________________________________________________________________________
Ac__4_41 (Activation)           (None, 125, 1, 64)   0           BN__4_41[0][0]                   
__________________________________________________________________________________________________
conc__4_30 (Concatenate)        (None, 250, 1, 128)  0           Ac__4_30[0][0]                   
                                                                 conc__5_31[0][0]                 
__________________________________________________________________________________________________
DCONV_4_20 (Conv2DTranspose)    (None, 500, 1, 16)   6160        conc__5_31[0][0]                 
__________________________________________________________________________________________________
BN__5_21 (BatchNormalization)   (None, 500, 1, 16)   64          DCONV_5_21[0][0]                 
__________________________________________________________________________________________________
Ac__5_10 (Activation)           (None, 1000, 1, 8)   0           BN__5_10[0][0]                   
__________________________________________________________________________________________________
conc__6_11 (Concatenate)        (None, 1000, 1, 16)  0           Ac__6_11[0][0]                   
                                                                 AC_1_0[0][0]                     
__________________________________________________________________________________________________
DCONV_6_01 (Conv2D)             (None, 2000, 1, 4)   132         conc__6_00[0][0]                 
__________________________________________________________________________________________________
conc__4_41 (Concatenate)        (None, 125, 1, 256)  0           Ac__4_41[0][0]                   
                                                                 conc__5_41[0][0]                 
__________________________________________________________________________________________________
DCONV_4_31 (Conv2D)             (None, 250, 1, 32)   16416       conc__4_30[0][0]                 
__________________________________________________________________________________________________
BN__4_20 (BatchNormalization)   (None, 500, 1, 16)   64          DCONV_4_20[0][0]                 
__________________________________________________________________________________________________
Ac__5_21 (Activation)           (None, 500, 1, 16)   0           BN__5_21[0][0]                   
__________________________________________________________________________________________________
conc__5_10 (Concatenate)        (None, 1000, 1, 24)  0           Ac__5_10[0][0]                   
                                                                 conc__6_11[0][0]                 
__________________________________________________________________________________________________
DCONV_5_00 (Conv2DTranspose)    (None, 2000, 1, 4)   260         conc__6_11[0][0]                 
__________________________________________________________________________________________________
BN__6_01 (BatchNormalization)   (None, 2000, 1, 4)   16          DCONV_6_01[0][0]                 
__________________________________________________________________________________________________
DCONV_3_30 (Conv2DTranspose)    (None, 250, 1, 32)   32800       conc__4_41[0][0]                 
__________________________________________________________________________________________________
BN__4_31 (BatchNormalization)   (None, 250, 1, 32)   128         DCONV_4_31[0][0]                 
__________________________________________________________________________________________________
Ac__4_20 (Activation)           (None, 500, 1, 16)   0           BN__4_20[0][0]                   
__________________________________________________________________________________________________
conc__5_21 (Concatenate)        (None, 500, 1, 48)   0           Ac__5_21[0][0]                   
                                                                 conc__6_21[0][0]                 
__________________________________________________________________________________________________
DCONV_5_11 (Conv2D)             (None, 1000, 1, 8)   776         conc__5_10[0][0]                 
__________________________________________________________________________________________________
BN__5_00 (BatchNormalization)   (None, 2000, 1, 4)   16          DCONV_5_00[0][0]                 
__________________________________________________________________________________________________
Ac__6_01 (Activation)           (None, 2000, 1, 4)   0           BN__6_01[0][0]                   
__________________________________________________________________________________________________
BN__3_30 (BatchNormalization)   (None, 250, 1, 32)   128         DCONV_3_30[0][0]                 
__________________________________________________________________________________________________
Ac__4_31 (Activation)           (None, 250, 1, 32)   0           BN__4_31[0][0]                   
__________________________________________________________________________________________________
conc__4_20 (Concatenate)        (None, 500, 1, 64)   0           Ac__4_20[0][0]                   
                                                                 conc__5_21[0][0]                 
__________________________________________________________________________________________________
DCONV_4_10 (Conv2DTranspose)    (None, 1000, 1, 8)   1544        conc__5_21[0][0]                 
__________________________________________________________________________________________________
BN__5_11 (BatchNormalization)   (None, 1000, 1, 8)   32          DCONV_5_11[0][0]                 
__________________________________________________________________________________________________
Ac__5_00 (Activation)           (None, 2000, 1, 4)   0           BN__5_00[0][0]                   
__________________________________________________________________________________________________
conc__6_01 (Concatenate)        (None, 2000, 1, 8)   0           Ac__6_01[0][0]                   
                                                                 AC_0_0[0][0]                     
__________________________________________________________________________________________________
Ac__3_30 (Activation)           (None, 250, 1, 32)   0           BN__3_30[0][0]                   
__________________________________________________________________________________________________
conc__4_31 (Concatenate)        (None, 250, 1, 128)  0           Ac__4_31[0][0]                   
                                                                 conc__5_31[0][0]                 
__________________________________________________________________________________________________
DCONV_4_21 (Conv2D)             (None, 500, 1, 16)   4112        conc__4_20[0][0]                 
__________________________________________________________________________________________________
BN__4_10 (BatchNormalization)   (None, 1000, 1, 8)   32          DCONV_4_10[0][0]                 
__________________________________________________________________________________________________
Ac__5_11 (Activation)           (None, 1000, 1, 8)   0           BN__5_11[0][0]                   
__________________________________________________________________________________________________
conc__5_00 (Concatenate)        (None, 2000, 1, 12)  0           Ac__5_00[0][0]                   
                                                                 conc__6_01[0][0]                 
__________________________________________________________________________________________________
conc__3_30 (Concatenate)        (None, 250, 1, 160)  0           Ac__3_30[0][0]                   
                                                                 conc__4_31[0][0]                 
__________________________________________________________________________________________________
DCONV_3_20 (Conv2DTranspose)    (None, 500, 1, 16)   8208        conc__4_31[0][0]                 
__________________________________________________________________________________________________
BN__4_21 (BatchNormalization)   (None, 500, 1, 16)   64          DCONV_4_21[0][0]                 
__________________________________________________________________________________________________
Ac__4_10 (Activation)           (None, 1000, 1, 8)   0           BN__4_10[0][0]                   
__________________________________________________________________________________________________
conc__5_11 (Concatenate)        (None, 1000, 1, 24)  0           Ac__5_11[0][0]                   
                                                                 conc__6_11[0][0]                 
__________________________________________________________________________________________________
DCONV_5_01 (Conv2D)             (None, 2000, 1, 4)   196         conc__5_00[0][0]                 
__________________________________________________________________________________________________
DCONV_3_31 (Conv2D)             (None, 250, 1, 32)   20512       conc__3_30[0][0]                 
__________________________________________________________________________________________________
BN__3_20 (BatchNormalization)   (None, 500, 1, 16)   64          DCONV_3_20[0][0]                 
__________________________________________________________________________________________________
Ac__4_21 (Activation)           (None, 500, 1, 16)   0           BN__4_21[0][0]                   
__________________________________________________________________________________________________
conc__4_10 (Concatenate)        (None, 1000, 1, 32)  0           Ac__4_10[0][0]                   
                                                                 conc__5_11[0][0]                 
__________________________________________________________________________________________________
DCONV_4_00 (Conv2DTranspose)    (None, 2000, 1, 4)   388         conc__5_11[0][0]                 
__________________________________________________________________________________________________
BN__5_01 (BatchNormalization)   (None, 2000, 1, 4)   16          DCONV_5_01[0][0]                 
__________________________________________________________________________________________________
BN__3_31 (BatchNormalization)   (None, 250, 1, 32)   128         DCONV_3_31[0][0]                 
__________________________________________________________________________________________________
Ac__3_20 (Activation)           (None, 500, 1, 16)   0           BN__3_20[0][0]                   
__________________________________________________________________________________________________
conc__4_21 (Concatenate)        (None, 500, 1, 64)   0           Ac__4_21[0][0]                   
                                                                 conc__5_21[0][0]                 
__________________________________________________________________________________________________
DCONV_4_11 (Conv2D)             (None, 1000, 1, 8)   1032        conc__4_10[0][0]                 
__________________________________________________________________________________________________
BN__4_00 (BatchNormalization)   (None, 2000, 1, 4)   16          DCONV_4_00[0][0]                 
__________________________________________________________________________________________________
Ac__5_01 (Activation)           (None, 2000, 1, 4)   0           BN__5_01[0][0]                   
__________________________________________________________________________________________________
Ac__3_31 (Activation)           (None, 250, 1, 32)   0           BN__3_31[0][0]                   
__________________________________________________________________________________________________
conc__3_20 (Concatenate)        (None, 500, 1, 80)   0           Ac__3_20[0][0]                   
                                                                 conc__4_21[0][0]                 
__________________________________________________________________________________________________
DCONV_3_10 (Conv2DTranspose)    (None, 1000, 1, 8)   2056        conc__4_21[0][0]                 
__________________________________________________________________________________________________
BN__4_11 (BatchNormalization)   (None, 1000, 1, 8)   32          DCONV_4_11[0][0]                 
__________________________________________________________________________________________________
Ac__4_00 (Activation)           (None, 2000, 1, 4)   0           BN__4_00[0][0]                   
__________________________________________________________________________________________________
conc__5_01 (Concatenate)        (None, 2000, 1, 12)  0           Ac__5_01[0][0]                   
                                                                 conc__6_01[0][0]                 
__________________________________________________________________________________________________
conc__3_31 (Concatenate)        (None, 250, 1, 160)  0           Ac__3_31[0][0]                   
                                                                 conc__4_31[0][0]                 
__________________________________________________________________________________________________
DCONV_3_21 (Conv2D)             (None, 500, 1, 16)   5136        conc__3_20[0][0]                 
__________________________________________________________________________________________________
BN__3_10 (BatchNormalization)   (None, 1000, 1, 8)   32          DCONV_3_10[0][0]                 
__________________________________________________________________________________________________
Ac__4_11 (Activation)           (None, 1000, 1, 8)   0           BN__4_11[0][0]                   
__________________________________________________________________________________________________
conc__4_00 (Concatenate)        (None, 2000, 1, 16)  0           Ac__4_00[0][0]                   
                                                                 conc__5_01[0][0]                 
__________________________________________________________________________________________________
dconv_2_20 (Conv2DTranspose)    (None, 500, 1, 16)   10256       conc__3_31[0][0]                 
__________________________________________________________________________________________________
BN__3_21 (BatchNormalization)   (None, 500, 1, 16)   64          DCONV_3_21[0][0]                 
__________________________________________________________________________________________________
Ac__3_10 (Activation)           (None, 1000, 1, 8)   0           BN__3_10[0][0]                   
__________________________________________________________________________________________________
conc__4_11 (Concatenate)        (None, 1000, 1, 32)  0           Ac__4_11[0][0]                   
                                                                 conc__5_11[0][0]                 
__________________________________________________________________________________________________
DCONV_4_01 (Conv2D)             (None, 2000, 1, 4)   260         conc__4_00[0][0]                 
__________________________________________________________________________________________________
BN__2_20 (BatchNormalization)   (None, 500, 1, 16)   64          dconv_2_20[0][0]                 
__________________________________________________________________________________________________
Ac__3_21 (Activation)           (None, 500, 1, 16)   0           BN__3_21[0][0]                   
__________________________________________________________________________________________________
conc__3_10 (Concatenate)        (None, 1000, 1, 40)  0           Ac__3_10[0][0]                   
                                                                 conc__4_11[0][0]                 
__________________________________________________________________________________________________
DCONV_3_00 (Conv2DTranspose)    (None, 2000, 1, 4)   516         conc__4_11[0][0]                 
__________________________________________________________________________________________________
BN__4_01 (BatchNormalization)   (None, 2000, 1, 4)   16          DCONV_4_01[0][0]                 
__________________________________________________________________________________________________
Ac__2_20 (Activation)           (None, 500, 1, 16)   0           BN__2_20[0][0]                   
__________________________________________________________________________________________________
conc__3_21 (Concatenate)        (None, 500, 1, 80)   0           Ac__3_21[0][0]                   
                                                                 conc__4_21[0][0]                 
__________________________________________________________________________________________________
DCONV_3_11 (Conv2D)             (None, 1000, 1, 8)   1288        conc__3_10[0][0]                 
__________________________________________________________________________________________________
BN__3_00 (BatchNormalization)   (None, 2000, 1, 4)   16          DCONV_3_00[0][0]                 
__________________________________________________________________________________________________
Ac__4_01 (Activation)           (None, 2000, 1, 4)   0           BN__4_01[0][0]                   
__________________________________________________________________________________________________
conc__2_20 (Concatenate)        (None, 500, 1, 96)   0           Ac__2_20[0][0]                   
                                                                 conc__3_21[0][0]                 
__________________________________________________________________________________________________
dconv_2_10 (Conv2DTranspose)    (None, 1000, 1, 8)   2568        conc__3_21[0][0]                 
__________________________________________________________________________________________________
BN__3_11 (BatchNormalization)   (None, 1000, 1, 8)   32          DCONV_3_11[0][0]                 
__________________________________________________________________________________________________
Ac__3_00 (Activation)           (None, 2000, 1, 4)   0           BN__3_00[0][0]                   
__________________________________________________________________________________________________
conc__4_01 (Concatenate)        (None, 2000, 1, 16)  0           Ac__4_01[0][0]                   
                                                                 conc__5_01[0][0]                 
__________________________________________________________________________________________________
dconv_2_21 (Conv2D)             (None, 500, 1, 16)   6160        conc__2_20[0][0]                 
__________________________________________________________________________________________________
BN__2_10 (BatchNormalization)   (None, 1000, 1, 8)   32          dconv_2_10[0][0]                 
__________________________________________________________________________________________________
Ac__3_11 (Activation)           (None, 1000, 1, 8)   0           BN__3_11[0][0]                   
__________________________________________________________________________________________________
conc__3_00 (Concatenate)        (None, 2000, 1, 20)  0           Ac__3_00[0][0]                   
                                                                 conc__4_01[0][0]                 
__________________________________________________________________________________________________
BN__2_21 (BatchNormalization)   (None, 500, 1, 16)   64          dconv_2_21[0][0]                 
__________________________________________________________________________________________________
Ac__2_10 (Activation)           (None, 1000, 1, 8)   0           BN__2_10[0][0]                   
__________________________________________________________________________________________________
conc__3_11 (Concatenate)        (None, 1000, 1, 40)  0           Ac__3_11[0][0]                   
                                                                 conc__4_11[0][0]                 
__________________________________________________________________________________________________
DCONV_3_01 (Conv2D)             (None, 2000, 1, 4)   324         conc__3_00[0][0]                 
__________________________________________________________________________________________________
Ac__2_21 (Activation)           (None, 500, 1, 16)   0           BN__2_21[0][0]                   
__________________________________________________________________________________________________
conc__2_10 (Concatenate)        (None, 1000, 1, 48)  0           Ac__2_10[0][0]                   
                                                                 conc__3_11[0][0]                 
__________________________________________________________________________________________________
dconv_2_00 (Conv2DTranspose)    (None, 2000, 1, 4)   644         conc__3_11[0][0]                 
__________________________________________________________________________________________________
BN__3_01 (BatchNormalization)   (None, 2000, 1, 4)   16          DCONV_3_01[0][0]                 
__________________________________________________________________________________________________
conc__2_21 (Concatenate)        (None, 500, 1, 96)   0           Ac__2_21[0][0]                   
                                                                 conc__3_21[0][0]                 
__________________________________________________________________________________________________
dconv_2_11 (Conv2D)             (None, 1000, 1, 8)   1544        conc__2_10[0][0]                 
__________________________________________________________________________________________________
BN__2_00 (BatchNormalization)   (None, 2000, 1, 4)   16          dconv_2_00[0][0]                 
__________________________________________________________________________________________________
Ac__3_01 (Activation)           (None, 2000, 1, 4)   0           BN__3_01[0][0]                   
__________________________________________________________________________________________________
dconv_1_10 (Conv2DTranspose)    (None, 1000, 1, 8)   3080        conc__2_21[0][0]                 
__________________________________________________________________________________________________
BN__2_11 (BatchNormalization)   (None, 1000, 1, 8)   32          dconv_2_11[0][0]                 
__________________________________________________________________________________________________
Ac__2_00 (Activation)           (None, 2000, 1, 4)   0           BN__2_00[0][0]                   
__________________________________________________________________________________________________
conc__3_01 (Concatenate)        (None, 2000, 1, 20)  0           Ac__3_01[0][0]                   
                                                                 conc__4_01[0][0]                 
__________________________________________________________________________________________________
BN__1_10 (BatchNormalization)   (None, 1000, 1, 8)   32          dconv_1_10[0][0]                 
__________________________________________________________________________________________________
Ac__2_11 (Activation)           (None, 1000, 1, 8)   0           BN__2_11[0][0]                   
__________________________________________________________________________________________________
conc__2_00 (Concatenate)        (None, 2000, 1, 24)  0           Ac__2_00[0][0]                   
                                                                 conc__3_01[0][0]                 
__________________________________________________________________________________________________
Ac__1_10 (Activation)           (None, 1000, 1, 8)   0           BN__1_10[0][0]                   
__________________________________________________________________________________________________
conc__2_11 (Concatenate)        (None, 1000, 1, 48)  0           Ac__2_11[0][0]                   
                                                                 conc__3_11[0][0]                 
__________________________________________________________________________________________________
dconv_2_01 (Conv2D)             (None, 2000, 1, 4)   388         conc__2_00[0][0]                 
__________________________________________________________________________________________________
conc__1_10 (Concatenate)        (None, 1000, 1, 56)  0           Ac__1_10[0][0]                   
                                                                 conc__2_11[0][0]                 
__________________________________________________________________________________________________
dconv_1_00 (Conv2DTranspose)    (None, 2000, 1, 4)   772         conc__2_11[0][0]                 
__________________________________________________________________________________________________
BN__2_01 (BatchNormalization)   (None, 2000, 1, 4)   16          dconv_2_01[0][0]                 
__________________________________________________________________________________________________
dconv_1_11 (Conv2D)             (None, 1000, 1, 8)   1800        conc__1_10[0][0]                 
__________________________________________________________________________________________________
BN__1_00 (BatchNormalization)   (None, 2000, 1, 4)   16          dconv_1_00[0][0]                 
__________________________________________________________________________________________________
Ac__2_01 (Activation)           (None, 2000, 1, 4)   0           BN__2_01[0][0]                   
__________________________________________________________________________________________________
BN__1_11 (BatchNormalization)   (None, 1000, 1, 8)   32          dconv_1_11[0][0]                 
__________________________________________________________________________________________________
Ac__1_00 (Activation)           (None, 2000, 1, 4)   0           BN__1_00[0][0]                   
__________________________________________________________________________________________________
conc__2_01 (Concatenate)        (None, 2000, 1, 24)  0           Ac__2_01[0][0]                   
                                                                 conc__3_01[0][0]                 
__________________________________________________________________________________________________
Ac__1_11 (Activation)           (None, 1000, 1, 8)   0           BN__1_11[0][0]                   
__________________________________________________________________________________________________
conc__1_00 (Concatenate)        (None, 2000, 1, 28)  0           Ac__1_00[0][0]                   
                                                                 conc__2_01[0][0]                 
__________________________________________________________________________________________________
conc__1_11 (Concatenate)        (None, 1000, 1, 56)  0           Ac__1_11[0][0]                   
                                                                 conc__2_11[0][0]                 
__________________________________________________________________________________________________
dconv_1_01 (Conv2D)             (None, 2000, 1, 4)   452         conc__1_00[0][0]                 
__________________________________________________________________________________________________
dconv_0_00 (Conv2DTranspose)    (None, 2000, 1, 4)   900         conc__1_11[0][0]                 
__________________________________________________________________________________________________
BN__1_01 (BatchNormalization)   (None, 2000, 1, 4)   16          dconv_1_01[0][0]                 
__________________________________________________________________________________________________
BN__0_00 (BatchNormalization)   (None, 2000, 1, 4)   16          dconv_0_00[0][0]                 
__________________________________________________________________________________________________
Ac__1_01 (Activation)           (None, 2000, 1, 4)   0           BN__1_01[0][0]                   
__________________________________________________________________________________________________
Ac__0_00 (Activation)           (None, 2000, 1, 4)   0           BN__0_00[0][0]                   
__________________________________________________________________________________________________
conc__1_01 (Concatenate)        (None, 2000, 1, 28)  0           Ac__1_01[0][0]                   
                                                                 conc__2_01[0][0]                 
__________________________________________________________________________________________________
conc__0_00 (Concatenate)        (None, 2000, 1, 32)  0           Ac__0_00[0][0]                   
                                                                 conc__1_01[0][0]                 
__________________________________________________________________________________________________
dconv_0_01 (Conv2D)             (None, 2000, 1, 4)   516         conc__0_00[0][0]                 
__________________________________________________________________________________________________
BN__0_01 (BatchNormalization)   (None, 2000, 1, 4)   16          dconv_0_01[0][0]                 
__________________________________________________________________________________________________
Ac__0_01 (Activation)           (None, 2000, 1, 4)   0           BN__0_01[0][0]                   
__________________________________________________________________________________________________
conc__0_01 (Concatenate)        (None, 2000, 1, 32)  0           Ac__0_01[0][0]                   
                                                                 conc__1_01[0][0]                 
__________________________________________________________________________________________________
dense_out_0 (Dense)             (None, 2000, 1, 1)   33          conc__0_01[0][0]                 
==================================================================================================
Total params: 14,253,761
Trainable params: 14,244,449
Non-trainable params: 9,312
__________________________________________________________________________________________________
None
__________________________________________________________________________________________________
Layer (type)                    Output Shape         Param #     Connected to                     
==================================================================================================
inputs (InputLayer)             (None, 2000, 1, 3)   0                                            
__________________________________________________________________________________________________
conv_0_0 (Conv2D)               (None, 2000, 1, 4)   52          inputs[0][0]                     
__________________________________________________________________________________________________
BN_0_0 (BatchNormalization)     (None, 2000, 1, 4)   16          conv_0_0[0][0]                   
__________________________________________________________________________________________________
AC_0_0 (Activation)             (None, 2000, 1, 4)   0           BN_0_0[0][0]                     
__________________________________________________________________________________________________
conv_0_1 (Conv2D)               (None, 2000, 1, 4)   68          AC_0_0[0][0]                     
__________________________________________________________________________________________________
BN_0_1 (BatchNormalization)     (None, 2000, 1, 4)   16          conv_0_1[0][0]                   
__________________________________________________________________________________________________
AC_0_1 (Activation)             (None, 2000, 1, 4)   0           BN_0_1[0][0]                     
__________________________________________________________________________________________________
PL_0_0 (MaxPooling2D)           (None, 1000, 1, 4)   0           AC_0_1[0][0]                     
__________________________________________________________________________________________________
conv_1_0 (Conv2D)               (None, 1000, 1, 8)   136         PL_0_0[0][0]                     
__________________________________________________________________________________________________
BN_1_0 (BatchNormalization)     (None, 1000, 1, 8)   32          conv_1_0[0][0]                   
__________________________________________________________________________________________________
AC_1_0 (Activation)             (None, 1000, 1, 8)   0           BN_1_0[0][0]                     
__________________________________________________________________________________________________
conv_1_1 (Conv2D)               (None, 1000, 1, 8)   264         AC_1_0[0][0]                     
__________________________________________________________________________________________________
BN_1_1 (BatchNormalization)     (None, 1000, 1, 8)   32          conv_1_1[0][0]                   
__________________________________________________________________________________________________
AC_1_1 (Activation)             (None, 1000, 1, 8)   0           BN_1_1[0][0]                     
__________________________________________________________________________________________________
PL_1_0 (AveragePooling2D)       (None, 500, 1, 8)    0           AC_1_1[0][0]                     
__________________________________________________________________________________________________
conv_2_0 (Conv2D)               (None, 500, 1, 16)   528         PL_1_0[0][0]                     
__________________________________________________________________________________________________
BN_2_0 (BatchNormalization)     (None, 500, 1, 16)   64          conv_2_0[0][0]                   
__________________________________________________________________________________________________
AC_2_0 (Activation)             (None, 500, 1, 16)   0           BN_2_0[0][0]                     
__________________________________________________________________________________________________
conv_2_1 (Conv2D)               (None, 500, 1, 16)   1040        AC_2_0[0][0]                     
__________________________________________________________________________________________________
BN_2_1 (BatchNormalization)     (None, 500, 1, 16)   64          conv_2_1[0][0]                   
__________________________________________________________________________________________________
AC_2_1 (Activation)             (None, 500, 1, 16)   0           BN_2_1[0][0]                     
__________________________________________________________________________________________________
PL_2_0 (MaxPooling2D)           (None, 250, 1, 16)   0           AC_2_1[0][0]                     
__________________________________________________________________________________________________
conv_3_0 (Conv2D)               (None, 250, 1, 32)   2080        PL_2_0[0][0]                     
__________________________________________________________________________________________________
BN_3_0 (BatchNormalization)     (None, 250, 1, 32)   128         conv_3_0[0][0]                   
__________________________________________________________________________________________________
AC_3_0 (Activation)             (None, 250, 1, 32)   0           BN_3_0[0][0]                     
__________________________________________________________________________________________________
conv_3_1 (Conv2D)               (None, 250, 1, 32)   4128        AC_3_0[0][0]                     
__________________________________________________________________________________________________
BN_3_1 (BatchNormalization)     (None, 250, 1, 32)   128         conv_3_1[0][0]                   
__________________________________________________________________________________________________
AC_3_1 (Activation)             (None, 250, 1, 32)   0           BN_3_1[0][0]                     
__________________________________________________________________________________________________
PL_3_0 (AveragePooling2D)       (None, 125, 1, 32)   0           AC_3_1[0][0]                     
__________________________________________________________________________________________________
CONV_4_0 (Conv2D)               (None, 125, 1, 64)   20544       PL_3_0[0][0]                     
__________________________________________________________________________________________________
BN_4_0 (BatchNormalization)     (None, 125, 1, 64)   256         CONV_4_0[0][0]                   
__________________________________________________________________________________________________
AC_4_0 (Activation)             (None, 125, 1, 64)   0           BN_4_0[0][0]                     
__________________________________________________________________________________________________
CONV_4_1 (Conv2D)               (None, 125, 1, 64)   41024       AC_4_0[0][0]                     
__________________________________________________________________________________________________
BN_4_1 (BatchNormalization)     (None, 125, 1, 64)   256         CONV_4_1[0][0]                   
__________________________________________________________________________________________________
AC_4_1 (Activation)             (None, 125, 1, 64)   0           BN_4_1[0][0]                     
__________________________________________________________________________________________________
PL_4_0 (MaxPooling2D)           (None, 25, 1, 64)    0           AC_4_1[0][0]                     
__________________________________________________________________________________________________
CONV_5_0 (Conv2D)               (None, 25, 1, 192)   123072      PL_4_0[0][0]                     
__________________________________________________________________________________________________
BN_5_0 (BatchNormalization)     (None, 25, 1, 192)   768         CONV_5_0[0][0]                   
__________________________________________________________________________________________________
AC_5_0 (Activation)             (None, 25, 1, 192)   0           BN_5_0[0][0]                     
__________________________________________________________________________________________________
CONV_5_1 (Conv2D)               (None, 25, 1, 192)   368832      AC_5_0[0][0]                     
__________________________________________________________________________________________________
BN_5_1 (BatchNormalization)     (None, 25, 1, 192)   768         CONV_5_1[0][0]                   
__________________________________________________________________________________________________
AC_5_1 (Activation)             (None, 25, 1, 192)   0           BN_5_1[0][0]                     
__________________________________________________________________________________________________
PL_5_0 (MaxPooling2D)           (None, 5, 1, 192)    0           AC_5_1[0][0]                     
__________________________________________________________________________________________________
CONV_6_0 (Conv2D)               (None, 5, 1, 576)    553536      PL_5_0[0][0]                     
__________________________________________________________________________________________________
BN_6_0 (BatchNormalization)     (None, 5, 1, 576)    2304        CONV_6_0[0][0]                   
__________________________________________________________________________________________________
AC_6_0 (Activation)             (None, 5, 1, 576)    0           BN_6_0[0][0]                     
__________________________________________________________________________________________________
CONV_6_1 (Conv2D)               (None, 5, 1, 576)    1659456     AC_6_0[0][0]                     
__________________________________________________________________________________________________
BN_6_1 (BatchNormalization)     (None, 5, 1, 576)    2304        CONV_6_1[0][0]                   
__________________________________________________________________________________________________
AC_6_1 (Activation)             (None, 5, 1, 576)    0           BN_6_1[0][0]                     
__________________________________________________________________________________________________
PL_6_0 (MaxPooling2D)           (None, 1, 1, 576)    0           AC_6_1[0][0]                     
__________________________________________________________________________________________________
DCONV_6_60 (Conv2DTranspose)    (None, 5, 1, 576)    1659456     PL_6_0[0][0]                     
__________________________________________________________________________________________________
BN__6_60 (BatchNormalization)   (None, 5, 1, 576)    2304        DCONV_6_60[0][0]                 
__________________________________________________________________________________________________
Ac__6_60 (Activation)           (None, 5, 1, 576)    0           BN__6_60[0][0]                   
__________________________________________________________________________________________________
conc__6_60 (Concatenate)        (None, 5, 1, 1152)   0           Ac__6_60[0][0]                   
                                                                 AC_6_0[0][0]                     
__________________________________________________________________________________________________
DCONV_6_50 (Conv2DTranspose)    (None, 25, 1, 192)   1106112     AC_6_0[0][0]                     
__________________________________________________________________________________________________
DCONV_6_61 (Conv2D)             (None, 5, 1, 576)    3318336     conc__6_60[0][0]                 
__________________________________________________________________________________________________
BN__6_50 (BatchNormalization)   (None, 25, 1, 192)   768         DCONV_6_50[0][0]                 
__________________________________________________________________________________________________
BN__6_61 (BatchNormalization)   (None, 5, 1, 576)    2304        DCONV_6_61[0][0]                 
__________________________________________________________________________________________________
Ac__6_50 (Activation)           (None, 25, 1, 192)   0           BN__6_50[0][0]                   
__________________________________________________________________________________________________
Ac__6_61 (Activation)           (None, 5, 1, 576)    0           BN__6_61[0][0]                   
__________________________________________________________________________________________________
conc__6_50 (Concatenate)        (None, 25, 1, 384)   0           Ac__6_50[0][0]                   
                                                                 AC_5_0[0][0]                     
__________________________________________________________________________________________________
DCONV_6_40 (Conv2DTranspose)    (None, 125, 1, 64)   122944      AC_5_0[0][0]                     
__________________________________________________________________________________________________
conc__6_61 (Concatenate)        (None, 5, 1, 1152)   0           Ac__6_61[0][0]                   
                                                                 AC_6_0[0][0]                     
__________________________________________________________________________________________________
DCONV_6_51 (Conv2D)             (None, 25, 1, 192)   737472      conc__6_50[0][0]                 
__________________________________________________________________________________________________
BN__6_40 (BatchNormalization)   (None, 125, 1, 64)   256         DCONV_6_40[0][0]                 
__________________________________________________________________________________________________
DCONV_5_50 (Conv2DTranspose)    (None, 25, 1, 192)   2212032     conc__6_61[0][0]                 
__________________________________________________________________________________________________
BN__6_51 (BatchNormalization)   (None, 25, 1, 192)   768         DCONV_6_51[0][0]                 
__________________________________________________________________________________________________
Ac__6_40 (Activation)           (None, 125, 1, 64)   0           BN__6_40[0][0]                   
__________________________________________________________________________________________________
BN__5_50 (BatchNormalization)   (None, 25, 1, 192)   768         DCONV_5_50[0][0]                 
__________________________________________________________________________________________________
Ac__6_51 (Activation)           (None, 25, 1, 192)   0           BN__6_51[0][0]                   
__________________________________________________________________________________________________
conc__6_40 (Concatenate)        (None, 125, 1, 128)  0           Ac__6_40[0][0]                   
                                                                 AC_4_0[0][0]                     
__________________________________________________________________________________________________
DCONV_6_30 (Conv2DTranspose)    (None, 250, 1, 32)   8224        AC_4_0[0][0]                     
__________________________________________________________________________________________________
Ac__5_50 (Activation)           (None, 25, 1, 192)   0           BN__5_50[0][0]                   
__________________________________________________________________________________________________
conc__6_51 (Concatenate)        (None, 25, 1, 384)   0           Ac__6_51[0][0]                   
                                                                 AC_5_0[0][0]                     
__________________________________________________________________________________________________
DCONV_6_41 (Conv2D)             (None, 125, 1, 64)   81984       conc__6_40[0][0]                 
__________________________________________________________________________________________________
BN__6_30 (BatchNormalization)   (None, 250, 1, 32)   128         DCONV_6_30[0][0]                 
__________________________________________________________________________________________________
conc__5_50 (Concatenate)        (None, 25, 1, 576)   0           Ac__5_50[0][0]                   
                                                                 conc__6_51[0][0]                 
__________________________________________________________________________________________________
DCONV_5_40 (Conv2DTranspose)    (None, 125, 1, 64)   245824      conc__6_51[0][0]                 
__________________________________________________________________________________________________
BN__6_41 (BatchNormalization)   (None, 125, 1, 64)   256         DCONV_6_41[0][0]                 
__________________________________________________________________________________________________
Ac__6_30 (Activation)           (None, 250, 1, 32)   0           BN__6_30[0][0]                   
__________________________________________________________________________________________________
DCONV_5_51 (Conv2D)             (None, 25, 1, 192)   1106112     conc__5_50[0][0]                 
__________________________________________________________________________________________________
BN__5_40 (BatchNormalization)   (None, 125, 1, 64)   256         DCONV_5_40[0][0]                 
__________________________________________________________________________________________________
Ac__6_41 (Activation)           (None, 125, 1, 64)   0           BN__6_41[0][0]                   
__________________________________________________________________________________________________
conc__6_30 (Concatenate)        (None, 250, 1, 64)   0           Ac__6_30[0][0]                   
                                                                 AC_3_0[0][0]                     
__________________________________________________________________________________________________
DCONV_6_20 (Conv2DTranspose)    (None, 500, 1, 16)   2064        AC_3_0[0][0]                     
__________________________________________________________________________________________________
BN__5_51 (BatchNormalization)   (None, 25, 1, 192)   768         DCONV_5_51[0][0]                 
__________________________________________________________________________________________________
Ac__5_40 (Activation)           (None, 125, 1, 64)   0           BN__5_40[0][0]                   
__________________________________________________________________________________________________
conc__6_41 (Concatenate)        (None, 125, 1, 128)  0           Ac__6_41[0][0]                   
                                                                 AC_4_0[0][0]                     
__________________________________________________________________________________________________
DCONV_6_31 (Conv2D)             (None, 250, 1, 32)   8224        conc__6_30[0][0]                 
__________________________________________________________________________________________________
BN__6_20 (BatchNormalization)   (None, 500, 1, 16)   64          DCONV_6_20[0][0]                 
__________________________________________________________________________________________________
Ac__5_51 (Activation)           (None, 25, 1, 192)   0           BN__5_51[0][0]                   
__________________________________________________________________________________________________
conc__5_40 (Concatenate)        (None, 125, 1, 192)  0           Ac__5_40[0][0]                   
                                                                 conc__6_41[0][0]                 
__________________________________________________________________________________________________
DCONV_5_30 (Conv2DTranspose)    (None, 250, 1, 32)   16416       conc__6_41[0][0]                 
__________________________________________________________________________________________________
BN__6_31 (BatchNormalization)   (None, 250, 1, 32)   128         DCONV_6_31[0][0]                 
__________________________________________________________________________________________________
Ac__6_20 (Activation)           (None, 500, 1, 16)   0           BN__6_20[0][0]                   
__________________________________________________________________________________________________
conc__5_51 (Concatenate)        (None, 25, 1, 576)   0           Ac__5_51[0][0]                   
                                                                 conc__6_51[0][0]                 
__________________________________________________________________________________________________
DCONV_5_41 (Conv2D)             (None, 125, 1, 64)   122944      conc__5_40[0][0]                 
__________________________________________________________________________________________________
BN__5_30 (BatchNormalization)   (None, 250, 1, 32)   128         DCONV_5_30[0][0]                 
__________________________________________________________________________________________________
Ac__6_31 (Activation)           (None, 250, 1, 32)   0           BN__6_31[0][0]                   
__________________________________________________________________________________________________
conc__6_20 (Concatenate)        (None, 500, 1, 32)   0           Ac__6_20[0][0]                   
                                                                 AC_2_0[0][0]                     
__________________________________________________________________________________________________
DCONV_6_10 (Conv2DTranspose)    (None, 1000, 1, 8)   520         AC_2_0[0][0]                     
__________________________________________________________________________________________________
DCONV_4_40 (Conv2DTranspose)    (None, 125, 1, 64)   368704      conc__5_51[0][0]                 
__________________________________________________________________________________________________
BN__5_41 (BatchNormalization)   (None, 125, 1, 64)   256         DCONV_5_41[0][0]                 
__________________________________________________________________________________________________
Ac__5_30 (Activation)           (None, 250, 1, 32)   0           BN__5_30[0][0]                   
__________________________________________________________________________________________________
conc__6_31 (Concatenate)        (None, 250, 1, 64)   0           Ac__6_31[0][0]                   
                                                                 AC_3_0[0][0]                     
__________________________________________________________________________________________________
DCONV_6_21 (Conv2D)             (None, 500, 1, 16)   2064        conc__6_20[0][0]                 
__________________________________________________________________________________________________
BN__6_10 (BatchNormalization)   (None, 1000, 1, 8)   32          DCONV_6_10[0][0]                 
__________________________________________________________________________________________________
BN__4_40 (BatchNormalization)   (None, 125, 1, 64)   256         DCONV_4_40[0][0]                 
__________________________________________________________________________________________________
Ac__5_41 (Activation)           (None, 125, 1, 64)   0           BN__5_41[0][0]                   
__________________________________________________________________________________________________
conc__5_30 (Concatenate)        (None, 250, 1, 96)   0           Ac__5_30[0][0]                   
                                                                 conc__6_31[0][0]                 
__________________________________________________________________________________________________
DCONV_5_20 (Conv2DTranspose)    (None, 500, 1, 16)   4112        conc__6_31[0][0]                 
__________________________________________________________________________________________________
BN__6_21 (BatchNormalization)   (None, 500, 1, 16)   64          DCONV_6_21[0][0]                 
__________________________________________________________________________________________________
Ac__6_10 (Activation)           (None, 1000, 1, 8)   0           BN__6_10[0][0]                   
__________________________________________________________________________________________________
Ac__4_40 (Activation)           (None, 125, 1, 64)   0           BN__4_40[0][0]                   
__________________________________________________________________________________________________
conc__5_41 (Concatenate)        (None, 125, 1, 192)  0           Ac__5_41[0][0]                   
                                                                 conc__6_41[0][0]                 
__________________________________________________________________________________________________
DCONV_5_31 (Conv2D)             (None, 250, 1, 32)   12320       conc__5_30[0][0]                 
__________________________________________________________________________________________________
BN__5_20 (BatchNormalization)   (None, 500, 1, 16)   64          DCONV_5_20[0][0]                 
__________________________________________________________________________________________________
Ac__6_21 (Activation)           (None, 500, 1, 16)   0           BN__6_21[0][0]                   
__________________________________________________________________________________________________
conc__6_10 (Concatenate)        (None, 1000, 1, 16)  0           Ac__6_10[0][0]                   
                                                                 AC_1_0[0][0]                     
__________________________________________________________________________________________________
DCONV_6_00 (Conv2DTranspose)    (None, 2000, 1, 4)   132         AC_1_0[0][0]                     
__________________________________________________________________________________________________
conc__4_40 (Concatenate)        (None, 125, 1, 256)  0           Ac__4_40[0][0]                   
                                                                 conc__5_41[0][0]                 
__________________________________________________________________________________________________
DCONV_4_30 (Conv2DTranspose)    (None, 250, 1, 32)   24608       conc__5_41[0][0]                 
__________________________________________________________________________________________________
BN__5_31 (BatchNormalization)   (None, 250, 1, 32)   128         DCONV_5_31[0][0]                 
__________________________________________________________________________________________________
Ac__5_20 (Activation)           (None, 500, 1, 16)   0           BN__5_20[0][0]                   
__________________________________________________________________________________________________
conc__6_21 (Concatenate)        (None, 500, 1, 32)   0           Ac__6_21[0][0]                   
                                                                 AC_2_0[0][0]                     
__________________________________________________________________________________________________
DCONV_6_11 (Conv2D)             (None, 1000, 1, 8)   520         conc__6_10[0][0]                 
__________________________________________________________________________________________________
BN__6_00 (BatchNormalization)   (None, 2000, 1, 4)   16          DCONV_6_00[0][0]                 
__________________________________________________________________________________________________
DCONV_4_41 (Conv2D)             (None, 125, 1, 64)   163904      conc__4_40[0][0]                 
__________________________________________________________________________________________________
BN__4_30 (BatchNormalization)   (None, 250, 1, 32)   128         DCONV_4_30[0][0]                 
__________________________________________________________________________________________________
Ac__5_31 (Activation)           (None, 250, 1, 32)   0           BN__5_31[0][0]                   
__________________________________________________________________________________________________
conc__5_20 (Concatenate)        (None, 500, 1, 48)   0           Ac__5_20[0][0]                   
                                                                 conc__6_21[0][0]                 
__________________________________________________________________________________________________
DCONV_5_10 (Conv2DTranspose)    (None, 1000, 1, 8)   1032        conc__6_21[0][0]                 
__________________________________________________________________________________________________
BN__6_11 (BatchNormalization)   (None, 1000, 1, 8)   32          DCONV_6_11[0][0]                 
__________________________________________________________________________________________________
Ac__6_00 (Activation)           (None, 2000, 1, 4)   0           BN__6_00[0][0]                   
__________________________________________________________________________________________________
BN__4_41 (BatchNormalization)   (None, 125, 1, 64)   256         DCONV_4_41[0][0]                 
__________________________________________________________________________________________________
Ac__4_30 (Activation)           (None, 250, 1, 32)   0           BN__4_30[0][0]                   
__________________________________________________________________________________________________
conc__5_31 (Concatenate)        (None, 250, 1, 96)   0           Ac__5_31[0][0]                   
                                                                 conc__6_31[0][0]                 
__________________________________________________________________________________________________
DCONV_5_21 (Conv2D)             (None, 500, 1, 16)   3088        conc__5_20[0][0]                 
__________________________________________________________________________________________________
BN__5_10 (BatchNormalization)   (None, 1000, 1, 8)   32          DCONV_5_10[0][0]                 
__________________________________________________________________________________________________
Ac__6_11 (Activation)           (None, 1000, 1, 8)   0           BN__6_11[0][0]                   
__________________________________________________________________________________________________
conc__6_00 (Concatenate)        (None, 2000, 1, 8)   0           Ac__6_00[0][0]                   
                                                                 AC_0_0[0][0]                     
__________________________________________________________________________________________________
Ac__4_41 (Activation)           (None, 125, 1, 64)   0           BN__4_41[0][0]                   
__________________________________________________________________________________________________
conc__4_30 (Concatenate)        (None, 250, 1, 128)  0           Ac__4_30[0][0]                   
                                                                 conc__5_31[0][0]                 
__________________________________________________________________________________________________
DCONV_4_20 (Conv2DTranspose)    (None, 500, 1, 16)   6160        conc__5_31[0][0]                 
__________________________________________________________________________________________________
BN__5_21 (BatchNormalization)   (None, 500, 1, 16)   64          DCONV_5_21[0][0]                 
__________________________________________________________________________________________________
Ac__5_10 (Activation)           (None, 1000, 1, 8)   0           BN__5_10[0][0]                   
__________________________________________________________________________________________________
conc__6_11 (Concatenate)        (None, 1000, 1, 16)  0           Ac__6_11[0][0]                   
                                                                 AC_1_0[0][0]                     
__________________________________________________________________________________________________
DCONV_6_01 (Conv2D)             (None, 2000, 1, 4)   132         conc__6_00[0][0]                 
__________________________________________________________________________________________________
conc__4_41 (Concatenate)        (None, 125, 1, 256)  0           Ac__4_41[0][0]                   
                                                                 conc__5_41[0][0]                 
__________________________________________________________________________________________________
DCONV_4_31 (Conv2D)             (None, 250, 1, 32)   16416       conc__4_30[0][0]                 
__________________________________________________________________________________________________
BN__4_20 (BatchNormalization)   (None, 500, 1, 16)   64          DCONV_4_20[0][0]                 
__________________________________________________________________________________________________
Ac__5_21 (Activation)           (None, 500, 1, 16)   0           BN__5_21[0][0]                   
__________________________________________________________________________________________________
conc__5_10 (Concatenate)        (None, 1000, 1, 24)  0           Ac__5_10[0][0]                   
                                                                 conc__6_11[0][0]                 
__________________________________________________________________________________________________
DCONV_5_00 (Conv2DTranspose)    (None, 2000, 1, 4)   260         conc__6_11[0][0]                 
__________________________________________________________________________________________________
BN__6_01 (BatchNormalization)   (None, 2000, 1, 4)   16          DCONV_6_01[0][0]                 
__________________________________________________________________________________________________
DCONV_3_30 (Conv2DTranspose)    (None, 250, 1, 32)   32800       conc__4_41[0][0]                 
__________________________________________________________________________________________________
BN__4_31 (BatchNormalization)   (None, 250, 1, 32)   128         DCONV_4_31[0][0]                 
__________________________________________________________________________________________________
Ac__4_20 (Activation)           (None, 500, 1, 16)   0           BN__4_20[0][0]                   
__________________________________________________________________________________________________
conc__5_21 (Concatenate)        (None, 500, 1, 48)   0           Ac__5_21[0][0]                   
                                                                 conc__6_21[0][0]                 
__________________________________________________________________________________________________
DCONV_5_11 (Conv2D)             (None, 1000, 1, 8)   776         conc__5_10[0][0]                 
__________________________________________________________________________________________________
BN__5_00 (BatchNormalization)   (None, 2000, 1, 4)   16          DCONV_5_00[0][0]                 
__________________________________________________________________________________________________
Ac__6_01 (Activation)           (None, 2000, 1, 4)   0           BN__6_01[0][0]                   
__________________________________________________________________________________________________
BN__3_30 (BatchNormalization)   (None, 250, 1, 32)   128         DCONV_3_30[0][0]                 
__________________________________________________________________________________________________
Ac__4_31 (Activation)           (None, 250, 1, 32)   0           BN__4_31[0][0]                   
__________________________________________________________________________________________________
conc__4_20 (Concatenate)        (None, 500, 1, 64)   0           Ac__4_20[0][0]                   
                                                                 conc__5_21[0][0]                 
__________________________________________________________________________________________________
DCONV_4_10 (Conv2DTranspose)    (None, 1000, 1, 8)   1544        conc__5_21[0][0]                 
__________________________________________________________________________________________________
BN__5_11 (BatchNormalization)   (None, 1000, 1, 8)   32          DCONV_5_11[0][0]                 
__________________________________________________________________________________________________
Ac__5_00 (Activation)           (None, 2000, 1, 4)   0           BN__5_00[0][0]                   
__________________________________________________________________________________________________
conc__6_01 (Concatenate)        (None, 2000, 1, 8)   0           Ac__6_01[0][0]                   
                                                                 AC_0_0[0][0]                     
__________________________________________________________________________________________________
Ac__3_30 (Activation)           (None, 250, 1, 32)   0           BN__3_30[0][0]                   
__________________________________________________________________________________________________
conc__4_31 (Concatenate)        (None, 250, 1, 128)  0           Ac__4_31[0][0]                   
                                                                 conc__5_31[0][0]                 
__________________________________________________________________________________________________
DCONV_4_21 (Conv2D)             (None, 500, 1, 16)   4112        conc__4_20[0][0]                 
__________________________________________________________________________________________________
BN__4_10 (BatchNormalization)   (None, 1000, 1, 8)   32          DCONV_4_10[0][0]                 
__________________________________________________________________________________________________
Ac__5_11 (Activation)           (None, 1000, 1, 8)   0           BN__5_11[0][0]                   
__________________________________________________________________________________________________
conc__5_00 (Concatenate)        (None, 2000, 1, 12)  0           Ac__5_00[0][0]                   
                                                                 conc__6_01[0][0]                 
__________________________________________________________________________________________________
conc__3_30 (Concatenate)        (None, 250, 1, 160)  0           Ac__3_30[0][0]                   
                                                                 conc__4_31[0][0]                 
__________________________________________________________________________________________________
DCONV_3_20 (Conv2DTranspose)    (None, 500, 1, 16)   8208        conc__4_31[0][0]                 
__________________________________________________________________________________________________
BN__4_21 (BatchNormalization)   (None, 500, 1, 16)   64          DCONV_4_21[0][0]                 
__________________________________________________________________________________________________
Ac__4_10 (Activation)           (None, 1000, 1, 8)   0           BN__4_10[0][0]                   
__________________________________________________________________________________________________
conc__5_11 (Concatenate)        (None, 1000, 1, 24)  0           Ac__5_11[0][0]                   
                                                                 conc__6_11[0][0]                 
__________________________________________________________________________________________________
DCONV_5_01 (Conv2D)             (None, 2000, 1, 4)   196         conc__5_00[0][0]                 
__________________________________________________________________________________________________
DCONV_3_31 (Conv2D)             (None, 250, 1, 32)   20512       conc__3_30[0][0]                 
__________________________________________________________________________________________________
BN__3_20 (BatchNormalization)   (None, 500, 1, 16)   64          DCONV_3_20[0][0]                 
__________________________________________________________________________________________________
Ac__4_21 (Activation)           (None, 500, 1, 16)   0           BN__4_21[0][0]                   
__________________________________________________________________________________________________
conc__4_10 (Concatenate)        (None, 1000, 1, 32)  0           Ac__4_10[0][0]                   
                                                                 conc__5_11[0][0]                 
__________________________________________________________________________________________________
DCONV_4_00 (Conv2DTranspose)    (None, 2000, 1, 4)   388         conc__5_11[0][0]                 
__________________________________________________________________________________________________
BN__5_01 (BatchNormalization)   (None, 2000, 1, 4)   16          DCONV_5_01[0][0]                 
__________________________________________________________________________________________________
BN__3_31 (BatchNormalization)   (None, 250, 1, 32)   128         DCONV_3_31[0][0]                 
__________________________________________________________________________________________________
Ac__3_20 (Activation)           (None, 500, 1, 16)   0           BN__3_20[0][0]                   
__________________________________________________________________________________________________
conc__4_21 (Concatenate)        (None, 500, 1, 64)   0           Ac__4_21[0][0]                   
                                                                 conc__5_21[0][0]                 
__________________________________________________________________________________________________
DCONV_4_11 (Conv2D)             (None, 1000, 1, 8)   1032        conc__4_10[0][0]                 
__________________________________________________________________________________________________
BN__4_00 (BatchNormalization)   (None, 2000, 1, 4)   16          DCONV_4_00[0][0]                 
__________________________________________________________________________________________________
Ac__5_01 (Activation)           (None, 2000, 1, 4)   0           BN__5_01[0][0]                   
__________________________________________________________________________________________________
Ac__3_31 (Activation)           (None, 250, 1, 32)   0           BN__3_31[0][0]                   
__________________________________________________________________________________________________
conc__3_20 (Concatenate)        (None, 500, 1, 80)   0           Ac__3_20[0][0]                   
                                                                 conc__4_21[0][0]                 
__________________________________________________________________________________________________
DCONV_3_10 (Conv2DTranspose)    (None, 1000, 1, 8)   2056        conc__4_21[0][0]                 
__________________________________________________________________________________________________
BN__4_11 (BatchNormalization)   (None, 1000, 1, 8)   32          DCONV_4_11[0][0]                 
__________________________________________________________________________________________________
Ac__4_00 (Activation)           (None, 2000, 1, 4)   0           BN__4_00[0][0]                   
__________________________________________________________________________________________________
conc__5_01 (Concatenate)        (None, 2000, 1, 12)  0           Ac__5_01[0][0]                   
                                                                 conc__6_01[0][0]                 
__________________________________________________________________________________________________
conc__3_31 (Concatenate)        (None, 250, 1, 160)  0           Ac__3_31[0][0]                   
                                                                 conc__4_31[0][0]                 
__________________________________________________________________________________________________
DCONV_3_21 (Conv2D)             (None, 500, 1, 16)   5136        conc__3_20[0][0]                 
__________________________________________________________________________________________________
BN__3_10 (BatchNormalization)   (None, 1000, 1, 8)   32          DCONV_3_10[0][0]                 
__________________________________________________________________________________________________
Ac__4_11 (Activation)           (None, 1000, 1, 8)   0           BN__4_11[0][0]                   
__________________________________________________________________________________________________
conc__4_00 (Concatenate)        (None, 2000, 1, 16)  0           Ac__4_00[0][0]                   
                                                                 conc__5_01[0][0]                 
__________________________________________________________________________________________________
dconv_2_20 (Conv2DTranspose)    (None, 500, 1, 16)   10256       conc__3_31[0][0]                 
__________________________________________________________________________________________________
BN__3_21 (BatchNormalization)   (None, 500, 1, 16)   64          DCONV_3_21[0][0]                 
__________________________________________________________________________________________________
Ac__3_10 (Activation)           (None, 1000, 1, 8)   0           BN__3_10[0][0]                   
__________________________________________________________________________________________________
conc__4_11 (Concatenate)        (None, 1000, 1, 32)  0           Ac__4_11[0][0]                   
                                                                 conc__5_11[0][0]                 
__________________________________________________________________________________________________
DCONV_4_01 (Conv2D)             (None, 2000, 1, 4)   260         conc__4_00[0][0]                 
__________________________________________________________________________________________________
BN__2_20 (BatchNormalization)   (None, 500, 1, 16)   64          dconv_2_20[0][0]                 
__________________________________________________________________________________________________
Ac__3_21 (Activation)           (None, 500, 1, 16)   0           BN__3_21[0][0]                   
__________________________________________________________________________________________________
conc__3_10 (Concatenate)        (None, 1000, 1, 40)  0           Ac__3_10[0][0]                   
                                                                 conc__4_11[0][0]                 
__________________________________________________________________________________________________
DCONV_3_00 (Conv2DTranspose)    (None, 2000, 1, 4)   516         conc__4_11[0][0]                 
__________________________________________________________________________________________________
BN__4_01 (BatchNormalization)   (None, 2000, 1, 4)   16          DCONV_4_01[0][0]                 
__________________________________________________________________________________________________
Ac__2_20 (Activation)           (None, 500, 1, 16)   0           BN__2_20[0][0]                   
__________________________________________________________________________________________________
conc__3_21 (Concatenate)        (None, 500, 1, 80)   0           Ac__3_21[0][0]                   
                                                                 conc__4_21[0][0]                 
__________________________________________________________________________________________________
DCONV_3_11 (Conv2D)             (None, 1000, 1, 8)   1288        conc__3_10[0][0]                 
__________________________________________________________________________________________________
BN__3_00 (BatchNormalization)   (None, 2000, 1, 4)   16          DCONV_3_00[0][0]                 
__________________________________________________________________________________________________
Ac__4_01 (Activation)           (None, 2000, 1, 4)   0           BN__4_01[0][0]                   
__________________________________________________________________________________________________
conc__2_20 (Concatenate)        (None, 500, 1, 96)   0           Ac__2_20[0][0]                   
                                                                 conc__3_21[0][0]                 
__________________________________________________________________________________________________
dconv_2_10 (Conv2DTranspose)    (None, 1000, 1, 8)   2568        conc__3_21[0][0]                 
__________________________________________________________________________________________________
BN__3_11 (BatchNormalization)   (None, 1000, 1, 8)   32          DCONV_3_11[0][0]                 
__________________________________________________________________________________________________
Ac__3_00 (Activation)           (None, 2000, 1, 4)   0           BN__3_00[0][0]                   
__________________________________________________________________________________________________
conc__4_01 (Concatenate)        (None, 2000, 1, 16)  0           Ac__4_01[0][0]                   
                                                                 conc__5_01[0][0]                 
__________________________________________________________________________________________________
dconv_2_21 (Conv2D)             (None, 500, 1, 16)   6160        conc__2_20[0][0]                 
__________________________________________________________________________________________________
BN__2_10 (BatchNormalization)   (None, 1000, 1, 8)   32          dconv_2_10[0][0]                 
__________________________________________________________________________________________________
Ac__3_11 (Activation)           (None, 1000, 1, 8)   0           BN__3_11[0][0]                   
__________________________________________________________________________________________________
conc__3_00 (Concatenate)        (None, 2000, 1, 20)  0           Ac__3_00[0][0]                   
                                                                 conc__4_01[0][0]                 
__________________________________________________________________________________________________
BN__2_21 (BatchNormalization)   (None, 500, 1, 16)   64          dconv_2_21[0][0]                 
__________________________________________________________________________________________________
Ac__2_10 (Activation)           (None, 1000, 1, 8)   0           BN__2_10[0][0]                   
__________________________________________________________________________________________________
conc__3_11 (Concatenate)        (None, 1000, 1, 40)  0           Ac__3_11[0][0]                   
                                                                 conc__4_11[0][0]                 
__________________________________________________________________________________________________
DCONV_3_01 (Conv2D)             (None, 2000, 1, 4)   324         conc__3_00[0][0]                 
__________________________________________________________________________________________________
Ac__2_21 (Activation)           (None, 500, 1, 16)   0           BN__2_21[0][0]                   
__________________________________________________________________________________________________
conc__2_10 (Concatenate)        (None, 1000, 1, 48)  0           Ac__2_10[0][0]                   
                                                                 conc__3_11[0][0]                 
__________________________________________________________________________________________________
dconv_2_00 (Conv2DTranspose)    (None, 2000, 1, 4)   644         conc__3_11[0][0]                 
__________________________________________________________________________________________________
BN__3_01 (BatchNormalization)   (None, 2000, 1, 4)   16          DCONV_3_01[0][0]                 
__________________________________________________________________________________________________
conc__2_21 (Concatenate)        (None, 500, 1, 96)   0           Ac__2_21[0][0]                   
                                                                 conc__3_21[0][0]                 
__________________________________________________________________________________________________
dconv_2_11 (Conv2D)             (None, 1000, 1, 8)   1544        conc__2_10[0][0]                 
__________________________________________________________________________________________________
BN__2_00 (BatchNormalization)   (None, 2000, 1, 4)   16          dconv_2_00[0][0]                 
__________________________________________________________________________________________________
Ac__3_01 (Activation)           (None, 2000, 1, 4)   0           BN__3_01[0][0]                   
__________________________________________________________________________________________________
dconv_1_10 (Conv2DTranspose)    (None, 1000, 1, 8)   3080        conc__2_21[0][0]                 
__________________________________________________________________________________________________
BN__2_11 (BatchNormalization)   (None, 1000, 1, 8)   32          dconv_2_11[0][0]                 
__________________________________________________________________________________________________
Ac__2_00 (Activation)           (None, 2000, 1, 4)   0           BN__2_00[0][0]                   
__________________________________________________________________________________________________
conc__3_01 (Concatenate)        (None, 2000, 1, 20)  0           Ac__3_01[0][0]                   
                                                                 conc__4_01[0][0]                 
__________________________________________________________________________________________________
BN__1_10 (BatchNormalization)   (None, 1000, 1, 8)   32          dconv_1_10[0][0]                 
__________________________________________________________________________________________________
Ac__2_11 (Activation)           (None, 1000, 1, 8)   0           BN__2_11[0][0]                   
__________________________________________________________________________________________________
conc__2_00 (Concatenate)        (None, 2000, 1, 24)  0           Ac__2_00[0][0]                   
                                                                 conc__3_01[0][0]                 
__________________________________________________________________________________________________
Ac__1_10 (Activation)           (None, 1000, 1, 8)   0           BN__1_10[0][0]                   
__________________________________________________________________________________________________
conc__2_11 (Concatenate)        (None, 1000, 1, 48)  0           Ac__2_11[0][0]                   
                                                                 conc__3_11[0][0]                 
__________________________________________________________________________________________________
dconv_2_01 (Conv2D)             (None, 2000, 1, 4)   388         conc__2_00[0][0]                 2020-11-21 16:01:14.269327: W tensorflow/core/util/tensor_slice_reader.cc:95] Could not open /home/jiangyr/Surface-Wave-Dispersion/accuratePickerV4/model/norm_p_400000_80000: Data loss: not an sstable (bad magic number): perhaps your file is in a different file format and you need to use a different restore operator?
2020-11-21 16:01:19.169463: W tensorflow/core/util/tensor_slice_reader.cc:95] Could not open /home/jiangyr/Surface-Wave-Dispersion/accuratePickerV4/model/norm_s_400000_80000: Data loss: not an sstable (bad magic number): perhaps your file is in a different file format and you need to use a different restore operator?
…
2020-11-21 16:03:51.128755: W tensorflow/core/common_runtime/bfc_allocator.cc:211] Allocator (GPU_0_bfc) ran out of memory trying to allocate 2.52GiB. The caller indicates that this is not a failure, but may mean that there could be performance gains if more memory were available.
2020-11-21 16:03:51.147631: W tensorflow/core/common_runtime/bfc_allocator.cc:211] Allocator (GPU_0_bfc) ran out of memory trying to allocate 3.15GiB. The caller indicates that this is not a failure, but may mean that there could be performance gains if more memory were available.

__________________________________________________________________________________________________
conc__1_10 (Concatenate)        (None, 1000, 1, 56)  0           Ac__1_10[0][0]                   
                                                                 conc__2_11[0][0]                 
__________________________________________________________________________________________________
dconv_1_00 (Conv2DTranspose)    (None, 2000, 1, 4)   772         conc__2_11[0][0]                 
__________________________________________________________________________________________________
BN__2_01 (BatchNormalization)   (None, 2000, 1, 4)   16          dconv_2_01[0][0]                 
__________________________________________________________________________________________________
dconv_1_11 (Conv2D)             (None, 1000, 1, 8)   1800        conc__1_10[0][0]                 
__________________________________________________________________________________________________
BN__1_00 (BatchNormalization)   (None, 2000, 1, 4)   16          dconv_1_00[0][0]                 
__________________________________________________________________________________________________
Ac__2_01 (Activation)           (None, 2000, 1, 4)   0           BN__2_01[0][0]                   
__________________________________________________________________________________________________
BN__1_11 (BatchNormalization)   (None, 1000, 1, 8)   32          dconv_1_11[0][0]                 
__________________________________________________________________________________________________
Ac__1_00 (Activation)           (None, 2000, 1, 4)   0           BN__1_00[0][0]                   
__________________________________________________________________________________________________
conc__2_01 (Concatenate)        (None, 2000, 1, 24)  0           Ac__2_01[0][0]                   
                                                                 conc__3_01[0][0]                 
__________________________________________________________________________________________________
Ac__1_11 (Activation)           (None, 1000, 1, 8)   0           BN__1_11[0][0]                   
__________________________________________________________________________________________________
conc__1_00 (Concatenate)        (None, 2000, 1, 28)  0           Ac__1_00[0][0]                   
                                                                 conc__2_01[0][0]                 
__________________________________________________________________________________________________
conc__1_11 (Concatenate)        (None, 1000, 1, 56)  0           Ac__1_11[0][0]                   
                                                                 conc__2_11[0][0]                 
__________________________________________________________________________________________________
dconv_1_01 (Conv2D)             (None, 2000, 1, 4)   452         conc__1_00[0][0]                 
__________________________________________________________________________________________________
dconv_0_00 (Conv2DTranspose)    (None, 2000, 1, 4)   900         conc__1_11[0][0]                 
__________________________________________________________________________________________________
BN__1_01 (BatchNormalization)   (None, 2000, 1, 4)   16          dconv_1_01[0][0]                 
__________________________________________________________________________________________________
BN__0_00 (BatchNormalization)   (None, 2000, 1, 4)   16          dconv_0_00[0][0]                 
__________________________________________________________________________________________________
Ac__1_01 (Activation)           (None, 2000, 1, 4)   0           BN__1_01[0][0]                   
__________________________________________________________________________________________________
Ac__0_00 (Activation)           (None, 2000, 1, 4)   0           BN__0_00[0][0]                   
__________________________________________________________________________________________________
conc__1_01 (Concatenate)        (None, 2000, 1, 28)  0           Ac__1_01[0][0]                   
                                                                 conc__2_01[0][0]                 
__________________________________________________________________________________________________
conc__0_00 (Concatenate)        (None, 2000, 1, 32)  0           Ac__0_00[0][0]                   
                                                                 conc__1_01[0][0]                 
__________________________________________________________________________________________________
dconv_0_01 (Conv2D)             (None, 2000, 1, 4)   516         conc__0_00[0][0]                 
__________________________________________________________________________________________________
BN__0_01 (BatchNormalization)   (None, 2000, 1, 4)   16          dconv_0_01[0][0]                 
__________________________________________________________________________________________________
Ac__0_01 (Activation)           (None, 2000, 1, 4)   0           BN__0_01[0][0]                   
__________________________________________________________________________________________________
conc__0_01 (Concatenate)        (None, 2000, 1, 32)  0           Ac__0_01[0][0]                   
                                                                 conc__1_01[0][0]                 
__________________________________________________________________________________________________
dense_out_0 (Dense)             (None, 2000, 1, 1)   33          conc__0_01[0][0]                 
==================================================================================================
Total params: 14,253,761
Trainable params: 14,244,449
Non-trainable params: 9,312
__________________________________________________________________________________________________
None
doing: SCYN1121 SCYN1121V3 1 1530403200.0 1577836800.0
pick on  2018-07-01T00:00:00.000000Z
…
